classifierFinal.pt (torch, 519442 bytes, 10 tensors)

conv1.weight f4 [128, 1, 5, 5]
000000 b7 bf 77 3c b8 36 2d bb c5 a1 b6 bc 9c 01 81 3c
       0.015121392 -0.002643032 -0.022293935 0.015747838
000010 fd 59 ae bb 2d 97 04 be 9c ff 25 3e fa 14 2d be
       -0.005320786 -0.12948294 0.16210788 -0.16902533
000020 2a 1b 9a 3e 90 8f 35 3e 65 d6 ca bb f8 28 69 3e
       0.3009885 0.17730546 -0.0061901086 0.22769535
000030 8d 78 92 3c 91 ba 90 be 9d ee eb be 5c 34 71 3e
       0.017879749 -0.2826734 -0.46080485 0.2355513
000040 e3 4b 88 be 65 4c 0d bf 73 1b 83 3d 8b f3 43 3e
       -0.26620397 -0.55194694 0.0640172 0.19135873
000050 4c f0 a0 be 6d 05 09 be d8 c6 1d be cd 76 50 be
       -0.31433332 -0.13380976 -0.15407884 -0.20357819
000060 3e dc 82 3d fe 0b 86 be 0d c0 48 be 50 0a 06 be
       0.06389664 -0.26181024 -0.19604512 -0.13089871
000070 8c 25 de 3d dd db e7 3a 02 bf 32 3e 25 a3 b8 bc
       0.10847005 0.0017689426 0.17455676 -0.02253873
000080 a8 9d f4 3c 61 50 19 3e fb ec 67 be 75 e4 51 3e
       0.029860333 0.14972068 -0.22648995 0.20497306
000090 ac 0f c1 3e 9b 2a 28 3e 2e 49 a4 bd 67 79 02 39
       0.3770727 0.16422503 -0.080217704 0.00012442992
0000a0 6b cd 06 bf a2 e8 c4 be 32 5f 4c be 79 1d 55 be
       -0.5265719 -0.38458735 -0.19958189 -0.20812024
0000b0 9e c6 01 bd 66 ee 70 3e d9 34 18 bf be 84 1e 3e
       -0.031683557 0.23528442 -0.5945564 0.15480325
0000c0 bd 93 37 3d 8d 5d 3e 3e ea 6c 67 be e4 3d 14 be
       0.04481863 0.18590374 -0.22600141 -0.14476734
0000d0 ce a5 3a 3e 75 d2 bb 3e ed ed 94 be fc e1 82 be
       0.18227312 0.36684003 -0.29087773 -0.25563037
0000e0 1d d6 17 3e 1a f4 a3 3e 3d d6 23 be 59 d2 aa be
       0.14827771 0.32022172 -0.15999694 -0.33363608
0000f0 1e 11 f4 3d fa e5 20 be bd d4 5c 3b 50 33 f9 bd
       0.11917327 -0.15712729 0.0033696138 -0.1216799
000100 83 49 5c 3e df c0 1f be 1b 96 48 be f7 d5 03 3e
       0.21512417 -0.15600918 -0.1958851 0.1287459
000110 60 13 01 3e 31 62 b2 bb ca 3f 40 be 2c c8 98 3e
       0.12605047 -0.0054438342 -0.18774334 0.2984022
000120 e6 6d a1 3e 45 4e da bc ad 92 94 be 07 0d 6a bd
       0.31529158 -0.02664865 -0.29018155 -0.05714133
000130 d3 d5 23 be 39 52 7e bd 04 09 87 be b5 1a 99 be
       -0.15999536 -0.062090132 -0.26374066 -0.29903188
000140 32 20 62 3e a5 54 72 3e 6f 51 3b 3e fb 25 a6 3e
       0.22082594 0.23665102 0.18292783 0.32450852
000150 25 f4 68 be be 66 f1 bd 15 89 eb 3c 4a 8a bb bc
       -0.22749384 -0.11787175 0.02875189 -0.02289309
000160 16 be 46 3e 05 89 31 bd ac 20 23 bd 68 95 a6 be
       0.1940845 -0.043343563 -0.03982608 -0.32535863
000170 00 b8 94 be cf 44 73 3d 9d 7c 52 3e 88 39 09 bd
       -0.2904663 0.059391793 0.20555349 -0.03350213
000180 ab dc 92 3e cc af 4e 3d 3d 68 c0 be ac bd 3e be
       0.2868398 0.05046062 -0.37579527 -0.18627042
000190 b6 be 98 3e 53 81 8b 3d b0 49 06 be a2 24 60 be
       0.29833 0.06811776 -0.13114047 -0.21888974
0001a0 40 6a f4 3e 7f 52 61 3e c5 a4 f9 3d d5 fb 36 be
       0.47737312 0.22004126 0.121896304 -0.17869504
0001b0 02 05 94 bd 8d 85 62 be 6e 75 96 bd 98 91 74 3e
       -0.07227518 -0.22121258 -0.07346617 0.23883665
0001c0 21 cd 75 3e 55 9a a9 3d 48 fc 9e be 2e c7 4e be
       0.24004032 0.082813896 -0.3105185 -0.20193169
0001d0 ce 7a 47 be bb f1 f9 bc 5f ca 54 3d fa 83 99 be
       -0.1948044 -0.030510774 0.05195081 -0.29983503
0001e0 2a 58 fb be 79 68 8b be 81 dd 0b 3e d3 77 c7 be
       -0.490907 -0.27228144 0.13658716 -0.38958606
0001f0 8e 5f d2 be af 0c 20 be 38 26 9a 3e 68 ee 26 3e
       -0.41088527 -0.15629838 0.30107284 0.16301882
000200 c9 ae 7b bb e2 53 03 be df 75 8f be 2d 23 7f bc
       -0.003840374 -0.12824968 -0.28019616 -0.015572351
000210 2f 91 6b 3e 15 76 a2 bb 7b 76 95 bd 5e 27 27 bd
       0.23004602 -0.004957924 -0.07297989 -0.040809028
000220 f0 7a c0 be a6 b7 50 bc b1 d0 ac bd 44 ca 1b be
       -0.37593794 -0.012739098 -0.08438242 -0.15213877
000230 9e 9e 82 3e c8 d6 6f be 2b a5 81 bd 62 a3 cc 3e
       0.2551164 -0.23421776 -0.063303314 0.399684
000240 3f 37 25 be 59 eb 44 3e d2 49 a6 be 17 ce a2 be
       -0.16134356 0.19230403 -0.32478195 -0.3179786
000250 c1 25 6d 3e 6d d1 72 3e 31 f9 b6 3d e7 60 9b 3c
       0.23158933 0.23712702 0.08934248 0.018967105
000260 dd a9 56 bd a7 66 26 be 0d 11 01 3e c5 b5 90 be
       -0.052408088 -0.16250096 0.1260416 -0.2826368
000270 4c f0 cc be ea fe f8 bd b7 68 ce 3e a1 6d 65 be
       -0.40027082 -0.12157996 0.40314266 -0.22405101
000280 c0 15 2b bd 63 dc 15 3e 3a 5f a1 3e 74 2f 8d 3d
       -0.04176879 0.14634852 0.31517965 0.068938166
000290 96 05 82 be 4d 44 a8 bd 2a 1a ac 3e 2c e6 0c 3e
       -0.25394887 -0.08216152 0.33613712 0.13759679
0002a0 7a 5d 85 be 40 b3 9d be cd 4a 4f 3e cf 04 bf bc
       -0.2604788 -0.3080082 0.20243378 -0.023317723
0002b0 e5 52 33 3e bb a0 96 be f7 cd 9a 3d a8 ad 58 3e
       0.1751209 -0.29419503 0.07558816 0.21159995
0002c0 39 dd 57 3e e1 32 d5 3d 18 78 8c 3d ad 90 c1 bd
       0.21080483 0.10410095 0.068588436 -0.09451423
0002d0 7c 61 9e 3e b6 68 b9 3e 70 e5 4e bd 72 08 a8 bd
       0.3093375 0.362127 -0.050511777 -0.08204736
0002e0 60 d4 06 be 95 10 bb be 32 ea f6 3d c3 18 4f be
       -0.13166952 -0.3653609 0.12056388 -0.2022429
0002f0 0f 47 d3 bd 12 30 5a 3d 78 94 07 bf 8e ae 94 be
       -0.10316288 0.0532685 -0.5296092 -0.29039425
000300 32 b2 01 bf 07 9f d1 bd 9a 0f d8 be 54 5d 51 be
       -0.5066253 -0.1023541 -0.42199403 -0.20445758
000310 24 b0 61 be 88 35 b4 be a8 c1 ae bd 0d 54 b0 be
       -0.22039849 -0.3519709 -0.08533031 -0.34439126
000320 f2 e0 c7 3d 56 c5 d9 bd 1d c2 32 3e 88 e9 a5 3d
       0.09759702 -0.10633342 0.17456861 0.08101183
000330 f2 9e b0 3c 8c ef 29 be c8 d1 e1 3d 1b 12 85 be
       0.021560166 -0.16595286 0.11026341 -0.25990376
000340 03 2d 9c be ed 4d 0a be 61 48 fb bc 3f 47 27 3d
       -0.3050309 -0.13506289 -0.030674161 0.04083943
000350 01 76 81 be 01 7b 7d 3e ba 0e 49 bd 2a b8 07 be
       -0.25285342 0.24753954 -0.04908631 -0.13253847
000360 91 c5 9a bd 30 da 0e be 49 b7 80 bd 7c 3f 90 be
       -0.07557214 -0.1395042 -0.06284959 -0.28173435
000370 1c b0 86 3e 19 61 7e 3e 1d d4 e5 3d 12 d6 cc be
       0.26306236 0.24841727 0.11222098 -0.40007073
000380 c4 3a 50 3e de ec 7e be 2e 1b 14 bf 40 8b 1a be
       0.20334917 -0.24895045 -0.5785397 -0.15092182
000390 02 6c 00 be 5f 55 d0 be 3b d7 39 3e 03 de 9b be
       -0.12541202 -0.40690133 0.1814851 -0.3044282
0003a0 4e 7e 92 be 25 f1 14 be 29 48 d4 3d e0 49 5b 3e
       -0.28611988 -0.14545114 0.10365326 0.214149
0003b0 64 86 14 3d d2 49 0a 3a 9e 9e 6d 3e 57 a2 32 3e
       0.036260977 0.00052752823 0.23205039 0.1744474
0003c0 ea 53 23 bc 2b 10 b4 3c 4f 14 16 bd 8c 74 09 be
       -0.009968737 0.021980366 -0.03664046 -0.13423365
0003d0 4f e6 1c be f0 d4 51 3e b4 58 26 3e ea 41 14 3e
       -0.15322231 0.20491385 0.16244775 0.14478269
0003e0 1d 72 93 bb 85 06 e2 3d e3 04 5e 3e 15 d0 e0 3d
       -0.0044996873 0.110364 0.21681552 0.109771885
0003f0 28 a5 d3 3d 19 d0 21 3e 76 24 1b bd 1d ec a8 3d
       0.103342354 0.15802039 -0.03787657 0.0824816

conv1.bias f4 [128]
000000 13 4b cc bb f2 3c 6d be 0d dc cf be fa e2 05 be
       -0.0062345355 -0.2316778 -0.40597573 -0.13074866
000010 69 b9 04 3f 06 8a 4e be 94 75 30 3e df be ae 3e
       0.51845413 -0.2016984 0.17232352 0.34129998
000020 ce 1c 89 bd ee 40 b9 3e 0c b7 ba 3b b9 b4 85 3e
       -0.06694947 0.3618235 0.0056980904 0.26114443
000030 45 47 0a be fc e5 bb be e2 8b 1b bf 98 90 36 bf
       -0.1350375 -0.36698902 -0.6076032 -0.7131438
000040 45 c0 31 bf 8d 3b 62 3e 6c 0a 0e be 99 39 6d be
       -0.69434005 0.2209303 -0.13871163 -0.23166503
000050 1e 68 f4 bb 8c c2 62 3e 6c 59 11 3e 36 a9 3b 3f
       -0.007458701 0.22144526 0.14194268 0.7330507
000060 ed 7b 29 bf fc 64 74 be 6c e3 8e be 59 c4 82 3e
       -0.6620472 -0.23866647 -0.27907884 0.25540426
000070 6f e8 ed 3d 63 6c ba 3d bf e3 73 3e 4e 29 7a be
       0.11616599 0.091027044 0.23817347 -0.24429819
000080 7e 19 d6 3e 92 52 27 bc a4 4a 3a bf e4 d6 a6 be
       0.41816324 -0.010212557 -0.7277014 -0.32585824
000090 a1 8a f2 bd 03 16 ea be 02 25 32 3f 46 ab 8a be
       -0.118428476 -0.4571992 0.6958772 -0.27083796
0000a0 14 82 4d be 97 44 2d bd 6d 64 57 be 44 20 9f be
       -0.20069152 -0.04230174 -0.21034403 -0.31079304
0000b0 59 be 76 be 57 16 60 be af 21 8c bd 59 9f e2 be
       -0.2409605 -0.21883522 -0.06842362 -0.44262198
0000c0 64 9b c2 3e 67 c7 7d be 7b 71 31 bf 63 9d d0 3d
       0.3800918 -0.24783097 -0.6931378 0.10186269
0000d0 d3 14 c6 3e e6 04 8d be c1 f7 13 be c5 12 07 3f
       0.38687763 -0.275428 -0.1444998 0.52763015
0000e0 bd 21 05 3d 0c 78 0c 3e 2d 0c c0 3c 44 21 e0 3e
       0.03250288 0.13717669 0.023443306 0.4377538
0000f0 05 2e af 3e 57 46 8a be 48 36 e1 3e 74 99 a3 3e
       0.34214798 -0.2700679 0.43986726 0.31953013
000100 0f 60 e8 be 0d 06 30 3e 12 0e 32 be b8 71 72 be
       -0.45385787 0.17189808 -0.1738818 -0.23676193
000110 48 6e 6b 3e e2 45 e8 3e 0b d6 09 bf 12 37 da 3b
       0.22991288 0.45365816 -0.5384223 0.006659397
000120 ac 3e a2 be 84 eb 0d be 82 b1 5a 3e f7 92 a4 bd
       -0.3168844 -0.13859373 0.21356776 -0.08035844
000130 3d 24 27 3d c4 f0 0b be 02 90 da be 5b 9f 91 3d
       0.040806044 -0.13666064 -0.42687994 0.07110473
000140 c2 86 28 3d cf 45 52 3f 77 86 9a 3e bb 56 00 3e
       0.04114414 0.8213777 0.30180714 0.12533085
000150 97 c5 01 3f f6 fa 4b 3e b7 12 62 3e 81 39 bb bd
       0.50692123 0.19919953 0.22077452 -0.091418274
000160 24 ce fe bd 65 8a 32 bf 7c 78 0c 3e 4b 3c 1f 3e
       -0.12441662 -0.69742423 0.13717836 0.15550344
000170 cc 50 c2 3d bd b8 1a be f9 db b2 bd 81 70 98 3e
       0.09488067 -0.15109535 -0.08733363 0.29773334
000180 88 a5 f1 3d 81 0d fa be 17 f4 e2 3e a8 f7 83 3c
       0.11799151 -0.48838428 0.4432685 0.016109303
000190 df 3e 17 bf 65 06 24 be 9f 0c 1f be 40 0c 81 be
       -0.5908031 -0.16018064 -0.15532158 -0.25204659
0001a0 64 b5 ce 3d 8d be fe be 60 2b cd bd b9 41 84 3e
       0.10093191 -0.49754754 -0.10018039 0.25831392
0001b0 82 8f 87 3e 90 3a 1b bf 42 59 91 3e da c4 21 be
       0.26476675 -0.60636234 0.2838841 -0.15797749
0001c0 ff d3 fe 3b db 80 70 3d 87 76 a8 bd f7 61 e0 be
       0.0077767367 0.058716636 -0.08225732 -0.4382474
0001d0 21 eb 94 3d 63 53 de be c7 d2 fa 3c 8f d3 a0 be
       0.0727141 -0.43422994 0.030618085 -0.31411406
0001e0 7c aa 29 bd b3 7f 96 be 3e a3 29 3e 60 8b aa bb
       -0.041422352 -0.29394302 0.16566178 -0.005204603
0001f0 06 ad df 3d a0 d0 8c be ea 25 17 be 29 70 89 3d
       0.109216735 -0.27502918 -0.14760557 0.06710846

conv2.weight f4 [64, 128, 3, 3]
000000 8c bd c8 bc ba ee 8b 3c 28 b1 6f 3c f4 38 96 3a
       -0.024504445 0.017081607 0.01462964 0.0011461065
000010 91 de 04 bd 4f 9f 03 bd 6d 9b cb bc 9a bf 93 bc
       -0.03243882 -0.03213435 -0.024854386 -0.018035699
000020 cc 04 3e bc 25 ee 59 ba 3e 45 6e 3c 46 bb a2 3c
       -0.011597823 -0.00083133794 0.014542876 0.01986469
000030 76 23 13 bd 93 da 40 3c 90 40 72 bb 09 ec 92 3c
       -0.03592249 0.011770862 -0.0036964752 0.017934816
000040 e2 3a c3 bc b5 c7 13 3c f8 a5 60 ba 85 45 b7 3c
       -0.023831788 0.009019782 -0.0008569653 0.022372017
000050 5f 2e 09 3d 07 97 ff ba f7 fe f8 bb 19 53 a9 ba
       0.03349149 -0.0019499966 -0.0075987536 -0.0012918442
000060 67 97 1a 3c 3e 44 96 bc c1 bb 96 3a fc 96 c9 bc
       0.009435511 -0.018343087 0.0011500047 -0.024608128
000070 b3 47 29 ba c9 5a 34 3c ec e9 2a bc 78 cb 6b 3c
       -0.00064575224 0.011007973 -0.010431748 0.014391772
000080 fd 64 12 bc ed 9e da bc 11 71 b2 bc 84 8e 3e 3c
       -0.00893521 -0.02668711 -0.02178243 0.011630658
000090 cc 7d ba 3b 85 3b ee 3a 8a ee 27 bb 06 51 32 bc
       0.0056912657 0.0018175697 -0.0025624358 -0.010883575
0000a0 0e ef 5a bc a6 54 61 3c af a2 76 bc c5 95 e8 bc
       -0.013362659 0.013753092 -0.015053435 -0.028391728
0000b0 4e 90 9f bc 56 83 13 3d e2 26 48 ba 60 0f 03 bd
       -0.01947799 0.036013924 -0.00076351885 -0.031997085
0000c0 56 7c 1a bc 4a 79 8d bc e5 ae c4 3b 88 3b 3c 3c
       -0.009429058 -0.01726975 0.0060022944 0.011488803
0000d0 dc e9 00 3c db 1d 9d bb 9f a5 a9 bc 83 d9 9e 3c
       0.007868256 -0.004794819 -0.020708857 0.019390827
0000e0 e4 0f be bc ce ca c7 3b d0 e7 9e 3c 2f e8 ef bc
       -0.023200937 0.0060971742 0.019397646 -0.029285518
0000f0 e8 55 16 bd a4 bf 7e bc db fe cb 3b 35 05 99 bb
       -0.03670302 -0.01554862 0.0062254495 -0.00466981
000100 4f 6e 00 3d e6 55 80 bc 08 0a 93 3c bb 82 a9 3c
       0.0313552 -0.01566596 0.01794912 0.02069222
000110 09 0d 39 bc e7 b5 d6 3c d1 26 7f 3c 6f f4 d8 bb
       -0.011294612 0.026209785 0.015573219 -0.0066209356
000120 1f df 31 3b bd 09 87 bc bd d4 b0 3c 46 71 36 3b
       0.0027141047 -0.016484136 0.021585817 0.0027838512
000130 b5 05 59 bc 88 55 9f bc 12 74 54 39 a0 ec 4b bc
       -0.01324599 -0.019449964 0.00020261135 -0.0124465525
000140 c9 7d 9f bc b5 85 d4 bb 2a fa 0a bd 63 1c a5 3c
       -0.019469159 -0.0064856657 -0.03392998 0.020155137
000150 c9 0f ac bc c1 37 fc bc 63 59 62 3b 24 49 fc 3c
       -0.02100362 -0.030788304 0.0034538142 0.030796595
000160 48 4a 05 bd 9f 65 97 bc 4b e0 ce bc f1 49 87 bc
       -0.032541543 -0.018481074 -0.025253436 -0.01651475
000170 a9 7e e5 bc ab 32 42 3c 4c f7 d0 bc 50 dd 88 3c
       -0.028014498 0.0118529005 -0.025508545 0.016707093
000180 4d 24 9b 3c 16 ad 0e bc 22 ec ef bc 10 a6 8d 3b
       0.018938208 -0.008708259 -0.029287402 0.0043227747
000190 69 d6 71 3c ca 11 8c ba df 28 c3 bc 60 70 d7 3c
       0.014760592 -0.0010686454 -0.0238232 0.026298702
0001a0 74 3a a6 bc d1 98 6b 3c 1b 68 00 bd cf 5e 01 bd
       -0.020291544 0.014379696 -0.031349283 -0.031584557
0001b0 e7 1c c6 3b 13 3a 9a bc 35 12 9f 3c 88 54 9e bb
       0.006045926 -0.01882652 0.019417861 -0.0048318543
0001c0 a6 59 bf ba ee b4 07 bd 21 5e 2a bc 13 84 e3 bb
       -0.0014598861 -0.033131532 -0.010398419 -0.0069432347
0001d0 0f 04 72 bb 06 8b 15 3c fd 28 c5 3b ef e0 48 bc
       -0.0036928689 0.009127384 0.006016849 -0.01226066
0001e0 d6 ae 7a 3c 69 86 7b bc 6e ca 10 3b 72 de ed bc
       0.015300473 -0.01535187 0.0022093314 -0.029036734
0001f0 62 a2 09 bd 84 c0 72 bc ad b7 c2 bc b7 01 a7 bc
       -0.033602126 -0.014816407 -0.023769224 -0.02038656
000200 9f 6b fd 3b d6 76 a4 bc 8d dc d7 bc 78 37 5d bb
       0.0077337767 -0.020076197 -0.026350284 -0.0033754986
000210 b3 c5 a1 3b fb e5 3b 3a af ae e3 3c 5d 91 98 bc
       0.0049368977 0.00071677536 0.027793257 -0.018624002
000220 3b 65 c9 bc 33 b9 0c bd ae 4b 83 bc 57 8d b0 bc
       -0.024584403 -0.034356307 -0.016027298 -0.021551771
000230 94 80 a8 bc 85 14 b2 3b b8 d6 95 3c 02 1a 13 3c
       -0.020569123 0.005434575 0.018290862 0.008978369
000240 99 42 08 bb f3 75 6c bc 3a 06 d2 bc e5 e0 31 3b
       -0.0020791648 -0.014432418 -0.025637735 0.0027142104
000250 5b dd bf bc 9f c8 c9 bc 75 db 28 bc f4 b3 ac 3c
       -0.02342098 -0.024631796 -0.010306229 0.021081902
000260 c4 51 2d 3c c9 d4 60 3c dd c8 a5 bc f2 b3 0b 3c
       0.0105785765 0.013722607 -0.02023738 0.008526789
000270 67 1c 80 3a 71 19 d8 bc ce dc 00 bd e4 ba 86 3a
       0.000977409 -0.026379319 -0.031460576 0.0010279086
000280 0a d6 84 bb 58 b6 88 bc d2 6e b7 3c 97 89 0e bd
       -0.0040538358 -0.01668851 0.02239171 -0.034799185
000290 d2 df 02 bd fd b5 e7 bc 05 77 09 bc 06 3f 9b 3c
       -0.031951733 -0.028285021 -0.008390193 0.01895095
0002a0 b3 d2 40 3b ec 9d e7 bc 90 78 b7 3c 2a dd 5a bc
       0.0029422462 -0.028273545 0.022396356 -0.013358394
0002b0 5b 03 8d bc 88 20 b0 bc 52 08 90 bb 17 44 d1 bb
       -0.017213514 -0.021499887 -0.004395523 -0.006386291
0002c0 5b 4d d7 bc b2 24 b6 3c 96 07 99 bc 22 a4 27 bc
       -0.026282003 0.022234295 -0.018680375 -0.010232003
0002d0 8a 91 56 bb 25 17 81 3b c5 55 a5 bc c8 9a 2b 3c
       -0.0032740557 0.0039395266 -0.0201825 0.010473914
0002e0 7b f9 d3 bc 3c ef 96 bc 78 39 5c bb ee c9 49 bb
       -0.025875797 -0.018424623 -0.003360359 -0.0030790525
0002f0 95 21 7e 3c 63 70 05 bc b9 f1 0f 3c b0 f4 8a bb
       0.015510936 -0.008144471 0.0087856585 -0.004240595
000300 94 66 ae 3c b5 43 a6 bc 05 9a 50 bc d8 64 bb bc
       0.021289147 -0.020295957 -0.012732034 -0.022875234
000310 75 7d 83 3b 1a 7d 68 3c 63 81 d7 bc 9c 1f 32 bc
       0.0040127584 0.014189983 -0.026306814 -0.010871794
000320 45 b6 f9 3a 12 2b be 3b 10 e2 26 bc 38 bc 03 bd
       0.0019051513 0.005803474 -0.010185733 -0.03216192
000330 04 35 60 bc e8 b3 fe ba 2b 72 a2 bb 53 d0 85 bc
       -0.013684515 -0.0019432278 -0.0049574575 -0.016334688
000340 23 26 ed 3c 21 d9 f9 bc 90 3d a5 3b 69 4f ef b7
       0.028948849 -0.030499043 0.005042739 -2.8527998e-05
000350 ed 3b 6d bc 7c 58 04 bc 02 99 d0 bc 6b 0a 5e bc
       -0.014479619 -0.008077737 -0.025463585 -0.0135522885
000360 ee 76 13 bd ce ea 3b bc 3a ba dd 3b 01 88 8f 3c
       -0.036002092 -0.011469556 0.0067665847 0.017520906
000370 60 03 73 bc 97 e8 80 3c 45 2f 00 bc 21 59 14 bd
       -0.014832348 0.015735907 -0.00782377 -0.036217812
000380 f2 0a 06 bd 4f 01 2e bb 88 5f b0 3b f7 98 c4 bc
       -0.032725282 -0.0026551073 0.005382482 -0.02399872
000390 1e 2e 17 bd c9 ec 05 bd 0f 95 02 bb fb 2a 8f 3c
       -0.036909215 -0.03269652 -0.0019925272 0.01747655
0003a0 16 16 67 bc da 25 fc bc 06 c8 12 bb ee 26 36 3c
       -0.014104387 -0.030779768 -0.0022397055 0.01111768
0003b0 a8 0c 0b bc 7f 2b 05 bd 77 61 37 3c 81 f3 00 bc
       -0.008486904 -0.032512184 0.011192671 -0.007870556
0003c0 d8 1c d4 bc 27 4d 70 3c 3d a1 c4 bc 7e b3 c2 3b
       -0.02589266 0.014666832 -0.024002666 0.0059418073
0003d0 ef 96 c4 bc 52 1e 16 3c 4b 8e bf bc 5f 9c dc 3a
       -0.023997752 0.009162502 -0.02338328 0.001683127
0003e0 ab 0b c8 bb e7 a0 e7 3b a6 b6 92 3c dc e3 83 3a
       -0.0061049066 0.0070687416 0.01790936 0.0010062414
0003f0 54 27 ad bb f8 b3 98 bc e6 75 a1 3c 40 8f 84 3c
       -0.0052842293 -0.018640503 0.019709539 0.016181588

conv2.bias f4 [64]
000000 32 d2 3e bc 79 55 71 3e c7 04 e4 3e c9 cc 0f bd
       -0.011646794 0.23567761 0.44534895 -0.035107408
000010 e1 2d 67 bd e2 4f ee bc 00 49 07 bd ba a9 dc be
       -0.056440238 -0.029090825 -0.033028603 -0.4309824
000020 e7 ab 0e bd 1d 58 ed bc f2 bc 39 bd ed 8f bd 3c
       -0.034831908 -0.02897268 -0.045346208 0.023139918
000030 f1 91 73 3e a4 6b 3f bd 90 90 9c bb c6 62 3a 3c
       0.23786141 -0.046733513 -0.0047779754 0.0113760885
000040 13 5c b4 bb 27 7c 36 bb 6e 8b a3 bc 35 63 d9 bc
       -0.00550414 -0.0027844997 -0.019963946 -0.026536563
000050 bf 58 25 3e dd 7c f2 bc ba b8 50 bd 64 dd d4 ba
       0.16147135 -0.029600555 -0.05095742 -0.0016240296
000060 3d 1a 29 bd bd 7f 68 3e 0e 05 9d 3c 59 af 37 bd
       -0.04128479 0.22704978 0.01916745 -0.04484496
000070 8c ba b3 be 6d ea 8b 3e 9d 05 81 be 21 08 1a bd
       -0.3510326 0.2732729 -0.25199595 -0.03760541
000080 02 f2 00 3f 17 49 76 be 88 b6 95 bc f9 2c fa 3d
       0.50369275 -0.24051319 -0.018275514 0.12215609
000090 59 8c 73 3e ab da b3 bc b6 0c 27 bc 9f fa ef bc
       0.23784007 -0.021954855 -0.010195902 -0.02929431
0000a0 30 3f 16 bd 02 39 a0 bc dd ff bb 3e f7 d7 bd bc
       -0.036681354 -0.019558433 0.36718646 -0.02317427
0000b0 6d 7c 51 bf 99 f7 0f bc e2 6e 63 bc 5d 3f b9 b9
       -0.81830484 -0.008787059 -0.013881417 -0.0003533316
0000c0 ef 61 d6 be c7 43 d0 bd 17 58 9d 39 95 e9 ef bc
       -0.41871592 -0.101691775 0.00030011006 -0.029286185
0000d0 c4 37 02 bd 6c e8 8c 3e f0 aa d2 be e7 75 c1 3d
       -0.031791463 0.27521074 -0.4114604 0.09446316
0000e0 95 bf 37 be 88 a8 0d bd 54 c5 6d 3e d1 dc 82 3e
       -0.17944176 -0.034584552 0.23219806 0.25559095
0000f0 ca 4a 03 bd d9 4f 99 be af 4f e0 bc c9 5f e9 3b
       -0.032053746 -0.2994373 -0.027381746 0.007122014

conv3.weight f4 [32, 64, 3, 3]
000000 ec 51 2e 3d 36 f4 e2 3c 8e 35 0f bc 3a d3 36 3d
       0.042558596 0.02770434 -0.008740796 0.044635035
000010 82 d9 cb 3c 3c 53 d2 bc 01 93 ca bc 32 c5 b8 3b
       0.02488399 -0.025674455 -0.0247283 0.005638742
000020 4f 68 72 bc 3f ee d4 bd 65 95 6a 3e b6 0c c1 bd
       -0.014795377 -0.10397004 0.22908552 -0.094262525
000030 90 27 6b 3e 84 7a d1 be 0f 35 95 be d4 4c 4b be
       0.2296431 -0.40913785 -0.29142043 -0.19853526
000040 6a 6a 4a 3e cb ea 30 be fe dc 93 3d 0f d3 c9 bc
       0.19767156 -0.17277066 0.07219885 -0.024636773
000050 58 89 28 bd ed 80 61 bd da be 11 be 67 b5 f9 bc
       -0.041146606 -0.055054594 -0.1423296 -0.030482007
000060 90 60 8b 3b a1 bb 48 bd b8 e1 a9 3d d0 6f 26 3d
       0.0042534545 -0.049007062 0.082950056 0.040633976
000070 fc 73 f8 3c cd 2c 40 bc d0 b1 a4 bc 68 ff b3 bb
       0.030328743 -0.011729431 -0.020104319 -0.0054930933
000080 0e a5 c2 3b 94 76 59 bc 24 d0 bb bc 33 d4 ae bc
       0.005940086 -0.0132729 -0.022926398 -0.021341419
000090 6a 6b 89 bb 66 45 18 3d f6 45 84 ba d4 0d fa 3c
       -0.004193713 0.03717556 -0.0010091651 0.030524172
0000a0 28 03 16 3d af 74 18 3c 5c 3d 97 3c f9 df 27 3d
       0.036624104 0.009305163 0.018461876 0.04098508
0000b0 70 c2 e4 bc a2 94 3c 3b c9 35 99 3c 75 ec 49 3d
       -0.027924746 0.0028775115 0.018702405 0.04929777
0000c0 6a 3a ae bc e8 e4 83 bc 7d 9a 22 bc 62 0c 3d bd
       -0.021268088 -0.016100362 -0.009924528 -0.046154387
0000d0 67 a4 00 3d 57 07 20 3d ae 9e 94 bb 1e 6e 1b bc
       0.031406786 0.0390695 -0.0045355177 -0.009486703
0000e0 9a bc 7e bc 1c ee b1 ba 91 1e 8f 3c 3d 06 de bc
       -0.015547896 -0.001357499 0.01747063 -0.027102584
0000f0 f7 5b 12 3c af 8e 21 ba 17 38 4b bd 7b f2 c2 3d
       0.008933059 -0.0006162924 -0.04961404 0.09518906
000100 cc 0d da 3c 19 3a e8 bc d7 e9 92 be 33 29 0b bd
       0.026617907 -0.028348016 -0.2869403 -0.033974838
000110 f2 19 8c 3d 24 56 48 be b6 8d a0 bd 03 f6 a3 3b
       0.06840886 -0.1956411 -0.07839529 0.005003692
000120 98 b3 9b bd ad f3 e6 bd e3 3f a1 3d d2 b7 be 3d
       -0.07602614 -0.11276946 0.078735135 0.09312405
000130 6a 59 ec 3b 09 a3 c1 bd 7b 9e 61 bc 5a a2 3b bb
       0.0072128074 -0.094549246 -0.013770695 -0.0028630705
000140 85 ad 31 be 67 b3 b2 3c eb 6e 3e 3d 4f 3a 10 bd
       -0.17351349 0.021814061 0.0464925 -0.035211857
000150 1d 9f 9e 3c ae be 01 3d 4d 1d 11 3d 8a b3 3c 3d
       0.01936298 0.031675987 0.035428334 0.04606966
000160 7c 44 71 bc 65 28 19 bb 9d a2 29 bd ec 2b 5c 3c
       -0.014725801 -0.0023370024 -0.041414846 0.013438206
000170 fc e1 2d 3a 5a 75 f2 3c d9 0c 00 bd 96 07 97 bc
       0.00066331006 0.029596973 -0.031262252 -0.018436234
000180 ba c9 bd 3c 6a 43 9d bc 8c b8 be 3c 99 52 ca be
       0.02316748 -0.019197185 0.023281358 -0.39516142
000190 b6 58 32 be 68 02 da bd 74 1f 14 bf 70 68 da 3d
       -0.17416653 -0.1064499 -0.57860494 0.10664451
0001a0 9d 3d 8b 3e 62 99 42 be ef 58 4c bd c0 95 06 3e
       0.27195445 -0.19003823 -0.0498895 0.13143063
0001b0 15 46 dc bd 7f 0d 89 bd 63 a7 3e 3d 22 35 1b 3e
       -0.107555546 -0.06692027 0.04654635 0.15156987
0001c0 bc 40 17 be 12 82 aa be c3 1c 16 be a7 15 2b be
       -0.14770788 -0.3330236 -0.14659409 -0.16707478
0001d0 c7 20 1d 3e e4 18 2a 3d 71 ba bd 3c be 89 94 3c
       0.15344535 0.041527644 0.023160191 0.018132087
0001e0 92 6b df 3c 18 57 35 3d 54 28 02 3d 39 16 01 3d
       0.027272973 0.044272512 0.03177674 0.031515334
0001f0 2d d0 73 bc 71 15 87 3b bf ea 08 3d d1 a0 e0 3c
       -0.014881176 0.004122429 0.033426996 0.027420433
000200 46 8d 72 3c f5 0c f6 3c ce 09 15 3d 04 3f 10 bc
       0.01480419 0.030035475 0.036386304 -0.008804087
000210 f1 40 00 3d 67 39 96 3c 27 12 b3 bc a6 ec d2 bc
       0.031311933 0.018337918 -0.021859242 -0.025747608
000220 c1 4d c6 3b bb 54 fc bc 57 b9 c5 3c 37 26 05 3d
       0.0060517495 -0.030802121 0.024136228 0.032507148
000230 5e ac 15 3c ff 97 3b 3d 61 a1 40 bc b0 a1 e6 3b
       0.009135334 0.04579925 -0.011757226 0.0070383176
000240 da ad 47 3c a0 99 50 3d 7b fd 58 3d e6 4f ce 3c
       0.012187446 0.05092776 0.052976113 0.025184583
000250 e3 3e c9 3b ba 01 dc 3b ac 12 e3 bc cb 5f 1b 3d
       0.00614153 0.006714073 -0.027718864 0.037933152
000260 fe e0 33 3d a1 eb 80 bc 78 37 a1 3b f4 c9 27 3b
       0.04391574 -0.015737357 0.0049199425 0.0025602551
000270 fe 4d 7d bc 7a 5b 8b bc c1 cf dc bc 3d 1b 2e 3d
       -0.015460489 -0.017011393 -0.026954534 0.042506445
000280 99 20 b1 3c 8b 18 08 3d 21 96 b4 bc 71 4d d2 bc
       0.02162199 0.03322653 -0.022044243 -0.025671693
000290 45 b0 1c bd 92 36 8e bb 5d 2a 36 3d 2f 27 6a bc
       -0.03825404 -0.0043400014 0.044473995 -0.014291569
0002a0 c9 06 81 bb f5 26 82 bc 8e 98 d6 3c fd f7 a9 bc
       -0.0039375764 -0.015887717 0.02619579 -0.020748133
0002b0 55 61 0b bd fb 96 86 bc d5 98 c1 bb 15 f8 36 3d
       -0.03402837 -0.016429415 -0.0059081116 0.044670183
0002c0 be f2 3b bc 6f 84 24 3d d6 57 0e bd e3 86 ab 3c
       -0.0114714485 0.04016536 -0.034751736 0.020938342
0002d0 a6 b5 0c 3d bb 19 13 be b3 e6 6b bb a0 e0 04 be
       0.03435292 -0.14365284 -0.0035995662 -0.12976313
0002e0 ee ed 53 bd 02 c3 ab be 46 c8 b2 3d 36 c7 94 3c
       -0.05174058 -0.33547217 0.087296054 0.018161397
0002f0 e1 b9 a2 3d ba 89 06 bd da 40 3b 3d dd 2c 20 3d
       0.0794561 -0.03284619 0.045716144 0.039105285
000300 99 06 8f bc cb 51 d1 bc eb 62 45 3d 3e 6d ee 3c
       -0.0174592 -0.025551697 0.04819004 0.029104825
000310 33 d4 03 bd f9 c7 08 3d e2 a4 a8 3c 24 80 9b 3c
       -0.03218479 0.033393834 0.020586435 0.018982
000320 60 4b 7b 3c b0 8d 0d 3d 69 26 f9 bc a5 e8 ed bc
       0.015337795 0.03455895 -0.030413823 -0.029041598
000330 9f fd c5 bc 7b 54 8d bb 8f 64 1b 3d a5 04 d9 bc
       -0.024168788 -0.0043130494 0.037937697 -0.026491472
000340 70 27 1c 3c 31 35 ce 3c f5 45 c5 3c a4 81 13 bc
       0.009530887 0.025171848 0.02408121 -0.009003077
000350 a0 96 ef bc de 68 67 bb f2 f9 fb 3c f2 52 e5 3c
       -0.029246628 -0.0035310308 0.030758832 0.027993653
000360 40 80 42 bc 55 7c 8a 3c 35 9f 82 3b c4 13 ab ba
       -0.0118713975 0.01690499 0.003986264 -0.0013052155
000370 da 1e d6 bb dc d0 e6 bc d1 a0 be 3c 0c b6 f9 3c
       -0.0065344395 -0.028175764 0.023270043 0.030482315
000380 79 43 be bc d7 da 4d 3b 6d ec 67 3d ea 45 ad 3c
       -0.023225533 0.0031410956 0.056621958 0.021151502
000390 3c 12 aa 3e 55 25 44 3d e6 e3 28 bc ac a6 da bc
       0.33217037 0.047887165 -0.0103082415 -0.026690803
0003a0 9f fa 12 3e b8 44 c4 3d a3 c0 c3 3c 22 6f 05 3c
       0.14353417 0.095834196 0.023895567 0.008144172
0003b0 e4 94 2c 3d 1c a2 9b ba 73 69 3b 3d 7a 7a fb 3c
       0.04213418 -0.0011873874 0.04575486 0.03069805
0003c0 7f 1e 34 3c 38 6a 70 bc bb 32 72 bc 4b a0 19 3d
       0.010993599 -0.014673762 -0.014782603 0.037506383
0003d0 fc c0 86 bc 85 6a d8 bd de b9 68 bd e7 d9 e0 3b
       -0.016449444 -0.10567192 -0.05681788 0.0068619135
0003e0 b2 ca 55 bd 73 c0 9e bd 5b f5 45 bc 79 14 09 bd
       -0.05219526 -0.077515505 -0.012082423 -0.03346679
0003f0 53 93 f8 3b 12 53 61 bc af ad 00 3e 0b 3a 16 3e
       0.007585922 -0.013752716 0.12566255 0.14670579

conv3.bias f4 [32]
000000 11 88 80 3d 7c c3 40 be aa 29 23 3e c8 1d df 3e
       0.062759526 -0.18824571 0.15933862 0.4357741
000010 96 fb cd 3e f7 4c b7 3e 2e 58 cc 3d df 7a 9a 3a
       0.40231007 0.35800907 0.099777564 0.0011785886
000020 6f 3e 03 3d 7a 9b 00 3f 8f 23 fe 3d 58 41 1c 3f
       0.032041963 0.5023724 0.12409126 0.61037207
000030 d0 8b a8 3e a9 62 f1 3e de 4f 8c 3e cf db dc bb
       0.32919168 0.47145584 0.27404684 -0.0067400704
000040 57 21 01 3f 1f d3 ca bd 6e 24 9e 3e d6 3f 2c 3d
       0.504415 -0.099035494 0.3088717 0.042053066
000050 7f a3 76 3c 7d 9b ce 3e ec aa 8d be 88 4e 45 bd
       0.015053629 0.40353003 -0.27669466 -0.048170596
000060 8c 83 e2 bd 7a 88 8e be ee 67 b6 3e 01 a5 2c 3f
       -0.11060247 -0.27838498 0.35626167 0.67439276
000070 ed 28 e3 3e b4 af 2d 3d d9 09 7d 3e ab 89 9c 3e
       0.4436716 0.04240389 0.24710788 0.30573782

fc1.weight f4 [64, 512]
000000 da 53 7f 3e fb 40 98 3d 63 5a 02 bd d6 33 80 be
       0.2493433 0.07434269 -0.03182448 -0.25039548
000010 0e e1 83 3d 45 3a b8 bd 6e 56 07 3d 99 e7 0e be
       0.0643941 -0.08995489 0.03304141 -0.13955535
000020 f5 ef dc bd 46 0d 88 bb 7d 5b 91 3e 28 9b 5f be
       -0.10787956 -0.004151973 0.28390113 -0.21836531
000030 3d c8 5a be b9 80 41 be b9 b0 93 3c 50 4d 63 be
       -0.21365447 -0.1889676 0.018028604 -0.22197461
000040 c3 e5 a0 bc d1 f4 00 3e 02 c2 8b bd d3 07 16 3a
       -0.019640809 0.1259339 -0.068241134 0.0005723212
000050 03 07 81 bd 5e 4d 68 bc 7d b4 64 3e 78 bb 00 bd
       -0.063001655 -0.014178602 0.22334476 -0.031428784
000060 ce 9b b1 bd 89 70 39 3e c4 7b fa bd db bd be 3d
       -0.086722955 0.18109335 -0.12230638 0.09313556
000070 75 03 e5 3b f0 ad da 3d 44 94 80 3e 0f 27 8e 3d
       0.0069889375 0.10677707 0.25113118 0.069410436
000080 6a e4 cc 3d c4 df 76 be 31 6f 23 be 7d 9e be 3d
       0.10004504 -0.24108797 -0.15960385 0.09307573
000090 94 10 85 3e b5 f4 a0 be a7 71 da 3d 22 1b e5 3d
       0.2598921 -0.31436697 0.10666209 0.11186816
0000a0 82 41 ab 3d 93 3a c9 3d 05 e6 a4 bd 8a 54 83 3e
       0.08362104 0.09825625 -0.08051685 0.25650436
0000b0 dd 03 90 3e a5 7c a9 3d 2f 9a 46 3d 2f 5a 5e bd
       0.28127947 0.08275727 0.048486885 -0.054285225
0000c0 92 54 ce bd 59 95 82 3e cf c5 0c 3d 9f d7 85 3d
       -0.10074724 0.25504568 0.034368332 0.06535267
0000d0 cf df 32 bd f9 e1 e6 3d 44 75 9b bd 4c 15 af 3e
       -0.04367047 0.112735696 -0.07590726 0.34195936
0000e0 a8 b9 23 3e b8 de 42 3e e1 b4 fa bd bb c7 a0 3e
       0.15988791 0.19030273 -0.12241531 0.31402382
0000f0 70 fb 15 3e 6b 08 54 be e8 88 9e bd 38 30 44 3e
       0.14646697 -0.20706336 -0.077409565 0.19159019
000100 7c d4 7d bd 3b 75 09 be 14 f1 34 bd fa df 97 3e
       -0.06197022 -0.13423626 -0.044175223 0.29663068
000110 61 19 69 bd 3e 9e f7 bd 7f f8 09 be 54 33 96 bc
       -0.05690897 -0.12090729 -0.134737 -0.018335022
000120 96 4e 11 be 8f 84 04 3c cc e9 31 bc b1 65 38 3d
       -0.14190134 0.008088245 -0.010858964 0.045018855
000130 40 16 c7 bd 0f f7 af bd dc 58 06 be 01 a5 0a be
       -0.09721041 -0.085920446 -0.13119835 -0.13539506
000140 cc 52 a0 3e 3e 49 39 be b9 fb 13 be f0 fd 89 be
       0.3131317 -0.18094346 -0.14451493 -0.2695155
000150 09 32 ea bc bd 98 72 bd 3f 25 8c ba c9 d2 a0 3d
       -0.028588312 -0.059227694 -0.0010692253 0.07852704
000160 96 f5 91 3e 50 23 b2 be 90 84 6e 3e 25 ad c4 3c
       0.2850768 -0.34792566 0.23292756 0.024008343
000170 24 ff 24 be 2a e4 13 bc 5f e4 ba 3d e8 7c c0 3b
       -0.16112953 -0.0090265665 0.091255896 0.005874265
000180 ba 14 5a be 47 9d 99 bd 77 96 7a be f5 04 be 3e
       -0.21296969 -0.075007014 -0.2447146 0.37113157
000190 6f e1 38 3e 6f c2 c9 3c 38 80 9e be 03 de 34 3c
       0.18054746 0.024628846 -0.30957198 0.01103926
0001a0 f0 a9 66 bd a6 99 83 be b8 b1 a8 be d2 4d 6b 3e
       -0.05631441 -0.25703162 -0.3294809 0.22978905
0001b0 f2 f3 9f be d4 28 1c 3c b2 a8 a6 3d 30 71 a8 be
       -0.31240803 0.009531219 0.08137645 -0.32898855
0001c0 f2 f7 0d be 40 42 3a bd a9 86 6e 3e 37 8b 54 3d
       -0.13864115 -0.045473337 0.23293556 0.051890578
0001d0 5e a0 ce bd b8 29 b2 3c 50 96 f9 3d 5f a1 b2 be
       -0.10089181 0.021748409 0.12186873 -0.3488874
0001e0 2c c0 08 3d 25 cb 60 3e a6 0e 3a be f2 64 80 be
       0.033386394 0.21952493 -0.1816965 -0.25077015
0001f0 fb 05 ab be 6a 6f b0 bc eb 59 82 3d 31 5a 11 be
       -0.33403 -0.021537501 0.06364807 -0.14194562
000200 11 76 99 3d a0 76 af bd f0 36 37 bd fc a1 71 be
       0.074932225 -0.08567548 -0.044730127 -0.23596948
000210 32 9e 10 3e af 2c b4 3d e7 4d 73 be 73 a2 8c be
       0.14122847 0.08797585 -0.23760186 -0.2746769
000220 36 b8 2f 3d 38 7b 0f be 0b 67 28 be 68 09 25 3d
       0.042900287 -0.14011848 -0.16445558 0.040292174
000230 af 76 f1 3d ad 81 4a 3e 10 7a 8a be 71 ed b5 bd
       0.11790215 0.1977603 -0.2704625 -0.08883179
000240 b1 f6 61 be 57 85 2a 3d dc 77 c6 bd 56 f0 59 be
       -0.22066762 0.04163107 -0.0969083 -0.21283087
000250 84 d5 7d 3a 52 74 70 be 38 aa f7 be 62 28 98 3b
       0.00096830004 -0.23481873 -0.48372054 0.004643486
000260 e5 ed ca bc c5 9b f3 3d 8d 2f f9 3d 1c c4 e2 bc
       -0.02477164 0.11894945 0.12167273 -0.027681403
000270 91 f3 e7 bd ee b5 44 be e1 39 6f 3e 5d 49 0f 3d
       -0.113257535 -0.19210026 0.23361923 0.034982074
000280 87 fa b2 3e 70 35 3d 3c 4f f4 04 bf 20 b6 bb bd
       0.34956762 0.011548385 -0.51935285 -0.09165597
000290 8d 48 8e bc e4 dc 97 bd 86 33 06 be 33 79 e1 bd
       -0.01736858 -0.074151784 -0.13105592 -0.11009445
0002a0 19 ab ae bc 03 7e 3e be 03 5a 49 bd 2f 33 a4 3c
       -0.02132182 -0.18602757 -0.049158107 0.020043937
0002b0 08 b2 04 3e 6d b0 fb 3d 9c 74 25 bd 12 10 a3 3d
       0.12958539 0.1228951 -0.04039441 0.079620495
0002c0 75 fa 5f be 00 a6 05 3e 1b 68 92 be ea 03 9d bc
       -0.21872886 0.13051605 -0.2859505 -0.019166905
0002d0 ec 74 05 3e 41 9a 6c 3e 63 49 67 be 17 24 ac 3b
       0.13032883 0.23105718 -0.22586589 0.0052533257
0002e0 2b a5 09 3c bb 50 b5 bd 00 1f 97 be ce 3d 02 be
       0.0084011955 -0.08853289 -0.2951584 -0.12718889
0002f0 c2 62 58 be b3 a2 0a 3d 6c 9b 89 bd 22 6a 15 3e
       -0.21131423 0.03384657 -0.067190975 0.14591268
000300 1c 68 b8 bc 75 50 46 3e 29 37 7d bd fd 2a 4e 3e
       -0.02251058 0.1936663 -0.061820183 0.20133586
000310 86 bb 10 be 74 c5 90 3c 90 4c 92 3e 8c db ea 3c
       -0.14134035 0.017672278 0.28574038 0.028669141
000320 63 cd 35 3e 01 bb b0 bd c3 85 f8 3c bf 8d 29 be
       0.1775413 -0.08629418 0.03033722 -0.16557978
000330 84 46 37 3e 48 10 eb bd 8c d6 0c 3d 28 d6 83 3d
       0.17897993 -0.11477715 0.034384295 0.064373314
000340 b3 3d cb 3d 9a 0c 1b 3e dc 7e 16 bf 8f 2e b5 3e
       0.099238776 0.15141526 -0.5878732 0.35387084
000350 fa 14 1f bd a3 fd af bd 5e 06 4f be b1 e3 34 bd
       -0.038838364 -0.08593299 -0.20217273 -0.044162456
000360 86 38 66 3e 3b ef 4b be 79 67 3b be cf 25 95 3d
       0.224825 -0.19915478 -0.1830119 0.07282602
000370 2d b5 b9 3d 91 34 db 3d 1a 31 e0 3d b2 2e 49 bf
       0.0906776 0.107033856 0.109468654 -0.78586876
000380 05 49 39 3c e7 ce 61 3d 3e 1a ea 3c 4e 18 e4 3d
       0.011308913 0.055128958 0.028576966 0.11137448
000390 9e f8 cf 3d 50 5e af bd ca fb ba 3d 94 0d fa bd
       0.10154842 -0.085629106 0.09130056 -0.12209621
0003a0 9a 36 ec bc 4a 26 c3 bd 68 dd 59 bb 2b 7b 84 3d
       -0.02883463 -0.095287874 -0.003324354 0.06468805
0003b0 1c a3 47 bd 45 51 82 bd 69 d0 2d 3d 0c e8 b3 bd
       -0.048739538 -0.06363157 0.042435084 -0.08784494
0003c0 25 21 ab 3d 98 7f ac bc 89 dc 0c 3e 12 87 95 be
       0.08355931 -0.021056935 0.13756002 -0.29204613
0003d0 d9 37 a1 3a c9 c6 ac 3d e6 56 63 3d a6 c8 e5 3d
       0.0012299969 0.08436353 0.055502795 0.11219911
0003e0 2c 23 92 3e d5 ad 36 3e 78 46 bc be 1e cd b0 bb
       0.2854246 0.17839749 -0.36772513 -0.0053955456
0003f0 d7 46 1d 3b 40 b1 cc bc 7f 34 08 3d a7 61 63 bd
       0.0023998523 -0.024986863 0.03325319 -0.05551305

fc1.bias f4 [64]
000000 14 59 e9 bd 60 f5 0d 3f 96 18 89 bd 39 98 b6 3e
       -0.113939434 0.5545254 -0.066941425 0.35663012
000010 22 48 1f bf 8b d4 5a be 44 69 0a bc 3a 04 46 3f
       -0.6221944 -0.21370141 -0.008447949 0.773502
000020 8d 7d c7 be 30 86 25 bd 30 33 7c 3b 76 39 63 3e
       -0.38962975 -0.040411174 0.0038482659 0.22189888
000030 f5 fe 18 be 87 c5 c4 3e 07 fd aa bd ba b0 bc 3e
       -0.14941008 0.3843195 -0.083490424 0.36853582
000040 b2 a4 04 3f c6 ad fb 3e f7 04 f1 bc b5 fb f8 3e
       0.51813805 0.49156016 -0.029421313 0.48629537
000050 d1 bd 8a 3e 80 92 c7 be 68 16 95 be 07 5f e1 be
       0.27097943 -0.38978958 -0.29118657 -0.44017813
000060 ba da a5 3e 64 7d 17 3c ef 85 2f bd 78 d5 23 3e
       0.32393438 0.009246204 -0.04285234 0.159994
000070 21 c6 16 3f 15 7f 18 bf 39 27 6a 3e 1a 82 c7 3e
       0.5889607 -0.5956891 0.22866525 0.38966447
000080 d0 49 49 3e 44 ab e7 bd 04 38 fb 3d a9 e2 94 be
       0.19657063 -0.11311963 0.122665435 -0.29079178
000090 93 55 c3 be a5 92 d1 3e e5 4c 06 3f bd 66 96 3f
       -0.38151225 0.40932193 0.5246108 1.1750103
0000a0 81 d8 f9 be 34 1a c6 bd da 47 87 bd 8c 87 86 bd
       -0.48797992 -0.096729666 -0.066055015 -0.06568822
0000b0 ad f1 3e be 0c 31 f5 3e 21 55 0d 3f 3f f6 95 be
       -0.1864688 0.47888982 0.5520802 -0.29289433
0000c0 06 c5 33 3a d6 d0 0f 3f 81 27 44 be f2 30 76 bc
       0.0006857667 0.56178033 -0.19155695 -0.015026318
0000d0 bd 6a 14 bd 57 8b ab be b1 49 7d 3e a6 44 b9 3c
       -0.036234606 -0.33504745 0.24735142 0.022615742
0000e0 b3 41 b0 3e ea ab 50 3e 5d 20 3e bf 9a 46 29 3f
       0.34425125 0.2037808 -0.7426813 0.66123354
0000f0 6d 1a da 3c 1b 1e 2d 3e 96 a7 db bd 76 3e 1f 3d
       0.026623929 0.16906016 -0.10725324 0.038877927

fc2.weight f4 [7, 64]
000000 9e ff 99 bd 77 c2 7e 3a 89 1a 32 3c 4c 19 af bc
       -0.07519458 0.00097183086 0.010870584 -0.021374367
000010 6e b0 e1 3d 51 c0 81 3d f5 5e a2 3d fc e7 8e 3d
       0.110199794 0.063355096 0.07928268 0.06977841
000020 e5 e8 b8 3d e2 68 d0 bc 06 02 69 3d 6c f3 92 bd
       0.09028796 -0.025440637 0.056886695 -0.07175335
000030 ae 48 b6 bd ea a8 14 3d 25 bc 15 3e 8e 96 f0 bd
       -0.08900581 0.0362939 0.14622553 -0.11747466
000040 6f e9 55 3d 4b a0 2f bc 40 e4 22 bd a0 d5 db bb
       0.052224573 -0.010719369 -0.039768457 -0.0067088157
000050 a1 f9 ac 3d 2c 7c 9a 3d 57 cb 3d 3b 48 90 16 3e
       0.084460504 0.07543215 0.0028960311 0.14703476
000060 17 8e f9 bd 61 eb bf bb 5f fd 5a 3e 3e 20 b7 3d
       -0.121853046 -0.005856917 0.21385716 0.089416966
000070 52 02 4b 3c a2 da 5b 3d e8 a8 90 3b aa 5f 7c 3d
       0.01239069 0.0536753 0.0044146664 0.06161467
000080 3b c7 04 3e 00 bd b3 3c 65 8c 97 3c 4e 42 d7 3d
       0.12966625 0.021940708 0.018499563 0.105106935
000090 66 03 17 bc 33 be 8d 3d 6b 4e a1 3c db 7d 33 3c
       -0.009217119 0.06921043 0.019690713 0.010955299
0000a0 7e 88 85 3d f0 93 49 be 29 3b 68 bd af f2 e0 bd
       0.065201744 -0.1968534 -0.056697045 -0.10983788
0000b0 1d 4d a4 ba 47 b7 be 3d 50 f3 e4 bd 17 3c fc 3d
       -0.0012535189 0.09312301 -0.11179221 0.12316149
0000c0 11 6b 54 bd 03 ee 25 bd 55 4c 90 3d 30 d8 a6 bc
       -0.05185992 -0.04051019 0.07045809 -0.020366758
0000d0 42 d1 2f be 0c c1 b3 bd af db 13 3c 4f 2d 5d 3e
       -0.1716967 -0.08777055 0.009024545 0.21599315
0000e0 a7 49 64 bd 0a 21 35 3c 68 21 10 bd 77 f2 82 3d
       -0.055734303 0.01105524 -0.03518811 0.06393903
0000f0 2d 9b 17 bd 4a 6c b9 bd 7e e7 46 bd 1d 85 69 3d
       -0.03701322 -0.090538576 -0.048560612 0.057011712
000100 92 94 9a 3e 32 d4 4c be 73 ea 3f be e5 7d dc bb
       0.30191475 -0.20002821 -0.18741779 -0.006728875
000110 68 14 83 3b a7 b1 e8 3d 54 5e 5a be 82 23 8d 3d
       0.0040002353 0.113620095 -0.21325046 0.06891538
000120 be e0 df 3d 49 60 1a be 1d cc 1f 3e 80 6d 48 3b
       0.10931538 -0.15075792 0.15605207 0.0030582845
000130 ee 85 81 3e 59 c7 1b be 5a 86 ab bc f6 25 39 3c
       0.25297493 -0.15212764 -0.020938087 0.0113005545
000140 1e 45 8a 3d a2 ba 39 3d 1c 15 81 bd 4a 0b 3c be
       0.06751464 0.045344003 -0.063028544 -0.18363681
000150 92 43 62 be 8a 26 68 bc 68 c2 fb 3d ca 0f 89 bd
       -0.22096089 -0.014169345 0.122929394 -0.06692465
000160 f7 91 03 be d4 87 c0 be 3f 72 b2 bd 25 bf be 3d
       -0.1284865 -0.3760363 -0.08713197 0.09313802
000170 ed b2 b1 bc fa 47 5f 3d 91 c4 38 be 8b 2b 2d be
       -0.021691764 0.054512 -0.18043734 -0.16911142
000180 93 9b 80 3c 29 7d 12 3c 95 00 05 be 5a 4e 1c be
       0.015699184 0.008940973 -0.12988503 -0.15264264
000190 88 c2 cb 3c 80 c5 21 3e cb f6 51 bd c6 4d 79 bd
       0.024873033 0.15797997 -0.05126075 -0.060865186
0001a0 42 90 c4 3d 12 f5 50 bd 76 9d a7 bd 9e aa d6 3d
       0.095978275 -0.051014967 -0.0818433 0.104817614
0001b0 8a cf fa bd 0c 9d 1b be c1 f5 ff bd ba 2d d0 bd
       -0.12246616 -0.15196627 -0.12498046 -0.10164972
0001c0 69 50 16 bd 26 e2 53 3d 95 c4 1d 3e fe 86 9e bd
       -0.03669778 0.051729344 0.15407021 -0.077405915
0001d0 a7 2e 5c 3e 7a bb 08 3c 95 cb a0 bd 5c 4c 8d bd
       0.21502171 0.008345479 -0.0785133 -0.0689933
0001e0 8e 9c 07 3d 27 77 8c 3d 26 45 f6 bd b5 79 95 bd
       0.033108287 0.06858664 -0.12024908 -0.072986044
0001f0 d1 90 27 3e 47 18 47 be 41 5c 1c 3d f0 89 23 be
       0.16363837 -0.19442855 0.038173918 -0.15970588
000200 9c 66 50 3e 5e f7 11 3e 4e f4 94 bd 19 56 73 3c
       0.20351642 0.1425452 -0.0727316 0.01485207
000210 87 10 98 3a 55 61 e7 3d 5a 3b 7e be fa 67 ac 3d
       0.0011601605 0.112978615 -0.24827328 0.084182695
000220 30 82 03 3d d0 6d 47 3d ea ce 37 be 06 12 ba 3d
       0.03210658 0.04868871 -0.17950025 0.09085469
000230 96 16 41 3d d3 4d 52 bd 9a bc 72 3c 0a 1e 54 bd
       0.04714068 -0.05134375 0.014815474 -0.05178646
000240 d1 ab 6c ba 50 8a 92 3b d5 67 3e 3d 25 f8 c2 bb
       -0.0009028288 0.0044720545 0.04648574 -0.0059499913
000250 60 6e 54 3d 04 30 31 be ce a9 95 3d 43 79 14 bd
       0.051863074 -0.17303473 0.07307778 -0.036248457
000260 59 db 1a bd 1c 0f 83 bd b0 84 45 be 9c c2 a9 3c
       -0.037806842 -0.06399366 -0.19288898 0.02072268
000270 60 f2 87 3c 27 7e 2a 3d e3 d2 3d bd 5b 3f 3a 3c
       0.016595066 0.041624215 -0.046343695 0.011367644
000280 de 17 12 be 21 63 42 bc 66 0b 93 3d 70 94 3b 3e
       -0.14266917 -0.0118644545 0.071799085 0.18318343
000290 3e 35 34 bd dc de a1 3d 7c 4a 8f bc 29 77 02 3d
       -0.04399609 0.07903835 -0.017491572 0.03185192
0002a0 4f bb 10 bc e3 65 d2 3d 29 cd 96 3d 68 b9 c0 3c
       -0.00883372 0.102733396 0.0736335 0.023525909
0002b0 bc 71 ff 3d 7b 1f 1c 3d ab 53 a7 bd 59 a2 47 be
       0.12472865 0.03811596 -0.08170255 -0.19495524
0002c0 19 60 a6 bd 91 19 15 be 66 e6 41 3d 57 2b e3 3d
       -0.08123798 -0.14560534 0.047338866 0.11092251
0002d0 80 6b 28 3e ce 59 f0 3d eb 73 7c 3d bb bc e9 bd
       0.16447258 0.11735879 0.061633985 -0.114129506
0002e0 b8 a4 0e bc 40 6c 4a 3d 1e 94 07 be 87 61 fb 3b
       -0.008706264 0.04941964 -0.13240096 0.0076715383
0002f0 49 da 47 be ab 76 c4 3c 86 7b 4c bc 5f a7 44 3e
       -0.19516863 0.023982367 -0.012480622 0.19204472
000300 8e c6 40 bb e9 d6 4f bd ff 0e 84 bd cc 39 0d be
       -0.0029415223 -0.050742064 -0.06448173 -0.13791579
000310 a6 67 4e 3d d1 8b 09 3d 09 ab 8c be 0e 1e 62 bd
       0.050391816 0.033580605 -0.2747424 -0.055204444
000320 42 49 2e bd 44 e4 83 3d 69 25 d3 bd ac b2 c8 bd
       -0.042550333 0.064400226 -0.1030987 -0.09799704
000330 52 c1 73 3d cc 52 20 be cd 49 19 3c 0c b3 08 3d
       0.059510536 -0.15656585 0.009355974 0.033373877
000340 0f 9a 99 3d e9 12 e2 3d 82 49 0b 3e 2a 5d 43 3d
       0.075000875 0.11038763 0.1360226 0.04769627
000350 63 35 0d 3d 39 d6 37 3e 27 d2 11 be 05 a1 e0 bd
       0.03447474 0.17952813 -0.14240323 -0.10968212
000360 06 a7 e5 bd 5b 71 10 bd f2 73 21 3d 7a f3 20 bc
       -0.11213498 -0.035264354 0.039417215 -0.009823674
000370 3e 32 da bd b2 04 3d 3d 4d ce 87 3d 1c 76 2e 3d
       -0.10654114 0.046147056 0.066311456 0.042593107
000380 d1 92 e7 bd f0 12 11 be 01 3a 47 3d 0b ae 79 be
       -0.113073 -0.1416738 0.0486393 -0.24382798
000390 e1 9a 24 3e 3d 53 37 bd 05 48 4d bd 03 1c 76 bb
       0.16074707 -0.044757117 -0.05011751 -0.0037553317
0003a0 52 76 8b 3d 42 2c 8d bd 82 a3 0f 3e bf f2 f0 3d
       0.06809677 -0.06893207 0.14027217 0.1176505
0003b0 7d 71 c6 bd 75 57 d4 ba ed 7c 9f 3d d8 c9 e2 3d
       -0.09689615 -0.0016200381 0.077874996 0.11073655
0003c0 c0 70 37 3d 19 5d 06 bd bf 21 f7 3c 09 7c 73 3d
       0.04478526 -0.03280363 0.030167459 0.05944446
0003d0 77 f3 6a bd 9a e5 12 3d 67 86 45 3d 06 12 9b bd
       -0.057361092 0.035863496 0.04822388 -0.07571797
0003e0 64 15 6b 3d fa 50 41 bd e0 d0 cb 3d 1d 18 10 3e
       0.057393447 -0.047196366 0.09951949 0.14071698
0003f0 07 07 17 3e 59 33 29 be 88 93 40 be 30 ac 42 3e
       0.14748774 -0.16523494 -0.18806279 0.19010997

fc2.bias f4 [7]
000000 40 88 9f 3d 70 db e8 bd 31 89 24 be e3 42 c7 3d
       0.077896595 -0.113699794 -0.1606796 0.097295545
000010 07 9d e9 3d 6a 4c 53 3f 7b 94 7c bf
       0.11406904 0.82538474 -0.98664063
